perceptor/models/simulacra_aesthetic/weights/RN101.pth (torch, 3111 bytes, 1 tensors)

linear.weight f4 [1, 512]
0	0x3aaa6f44	0.001300313
1	0xbca97e18	-0.020690009
2	0x3e0c2bb3	0.13688545
3	0xbdad65fe	-0.08466719
4	0x3c9506a5	0.018191645
5	0x3d8c3d69	0.068476506
6	0x3d4c5a0d	0.049890567
7	0xbc55bc5d	-0.013045398
8	0xbc958758	-0.018253013
9	0xbcedfb78	-0.029050574
10	0x3d4b8a29	0.049692307
11	0x3c8127a0	0.015765965
12	0x3cf68b14	0.030095614
13	0xbd4111a5	-0.047135968
14	0x3baeccad	0.005334458
15	0x3cc8bb24	0.024503298
16	0xbcee6d41	-0.02910483
17	0x3d8e4ac6	0.06947856
18	0xbc66da7d	-0.014090178
19	0xbdc11747	-0.09428268
20	0x3d7cfcff	0.061764713
21	0x3d5ce1a2	0.053926118
22	0x3db93c85	0.09044746
23	0xbb407c15	-0.0029370834
24	0xbd811b29	-0.063040085
25	0xbc1dcbad	-0.00963108
26	0x3baa4d6f	0.005197219
27	0xbd2c80f1	-0.042115156
28	0x3d12ddd5	0.035856087
29	0x3d0a236e	0.033725195
30	0xbd48d148	-0.04902771
31	0xbd920f77	-0.07131856
32	0xbc3f0097	-0.0116578555
33	0x3d8e13f0	0.069373965
34	0x3c0eabe3	0.008707973
35	0x3d4dbc10	0.05022818
36	0xbd0b5aa0	-0.034021974
37	0xbc89ecd2	-0.016836558
38	0x3cba0541	0.022707583
39	0x3d7739c4	0.060357824
40	0x3d84e318	0.06488627
41	0xbd11f513	-0.03563411
42	0x3bd66478	0.0065427385
43	0x3cd10453	0.025514757
44	0x3c3f081b	0.011659647
45	0x3db0206b	0.08599933
46	0x3c8537f0	0.016262025
47	0x3d4870f8	0.04893586
48	0x3d990aa9	0.074727364
49	0xbd3df99c	-0.046380624
50	0x3da7ecaf	0.08199441
51	0xbe234c8c	-0.15947169
52	0x3d8289c6	0.063739344
53	0x3dfc030e	0.1230527
54	0xbca1a4ca	-0.019731898
55	0xbe0a8e21	-0.1353078
56	0xbcbb69fd	-0.022877688
57	0xbd5c6e12	-0.05381591
58	0xbb3f14ff	-0.0029156802
59	0x3c07a401	0.008278848
60	0x3d16ba19	0.03679857
61	0xbd33b7d4	-0.043876484
62	0xbcc3ea73	-0.023915505
63	0xbd1481ce	-0.036256604
64	0xbd3b58e9	-0.04573909
65	0x3d1540ea	0.03643886
66	0x3da34c47	0.07973533
67	0xbccb5a4f	-0.024823336
68	0x3c1c92f3	0.00955652
69	0xbcd9f202	-0.026604656
70	0xbd876442	-0.066109195
71	0x3d87861f	0.066173784
72	0x3bb22a9c	0.0054372083
73	0xbd2351cc	-0.03987293
74	0xbc83a1c8	-0.016068354
75	0x3c24ae81	0.010051371
76	0xbc839a22	-0.016064707
77	0xbc4ea0de	-0.012611596
78	0xbd3ba572	-0.045812078
79	0x3d058ada	0.032603122
80	0xbcdab1c1	-0.026696088
81	0xbdd01d73	-0.10161867
82	0x3cea3676	0.028590422
83	0x3b2b6238	0.0026151072
84	0xbcd8fed3	-0.026488697
85	0x3a11754b	0.0005548789
86	0x3ca68dec	0.020331345
87	0xbcfcac83	-0.030843979
88	0xbd148316	-0.036257826
89	0xbd04d7dc	-0.032432422
90	0xbd1dc5b8	-0.038518637
91	0x3cdefa30	0.027218908
92	0xbd70cf78	-0.058791608
93	0xbdccdfdc	-0.10003635
94	0x3da45f4e	0.080259904
95	0xbcef4bfd	-0.029211039
96	0xbd18a539	-0.037266944
97	0x3ccdabe8	0.025106385
98	0x3dc1c159	0.09460706
99	0xbd3ca9c6	-0.046060346
100	0xbd0478a9	-0.032341633
101	0xbbc71a89	-0.0060761613
102	0x3ca95c67	0.020673944
103	0xbda5a549	-0.08088166
104	0x3c12fab9	0.00897091
105	0x3ca44d6b	0.020056447
106	0x3c26bb23	0.010176453
107	0xbcbc77bf	-0.023006318
108	0x3c9b187f	0.01893258
109	0xbdaa5436	-0.08316843
110	0x3def7e58	0.1169402
111	0xbd3d1d9b	-0.046170812
112	0xbc9b6761	-0.018970193
113	0xbdb8fe9c	-0.09032938
114	0x3a5a239e	0.00083213474
115	0x3bceefab	0.0063151917
116	0x3e319f65	0.1734596
117	0x3d5db0fa	0.054123856
118	0x3d63d732	0.055625148
119	0xbd855984	-0.065112144
120	0x3d7ea222	0.06216634
121	0x3d3b3af7	0.04571053
122	0x3dc3874f	0.095472924
123	0xbcce6306	-0.025193702
124	0x3d9ae0e7	0.07562428
125	0xbccbcaf0	-0.024877042
126	0x3ca56268	0.020188525
127	0xbc868d03	-0.016424662
128	0x3d1e55fb	0.038656216
129	0x3d4d1235	0.05006619
130	0xbae12b57	-0.0017179054
131	0xbc33f5bb	-0.01098388
132	0x3d9937a3	0.07481315
133	0x3d0d552c	0.034505054
134	0x3c980b0f	0.01855996
135	0xbd3147cf	-0.043281373
136	0x3c88d0b1	0.016701074
137	0xbd7599ab	-0.059961002
138	0xbc3b9d88	-0.011451133
139	0x3da7eb3a	0.08199163
140	0x3bf736ba	0.0075443657
141	0xbc884d4f	-0.016638426
142	0x3de7520a	0.112949446
143	0xbc3d58cc	-0.011556815
144	0x3d472f42	0.048629053
145	0x3c074083	0.008255127
146	0xbd86f124	-0.06588963
147	0xbd8edc98	-0.06975669
148	0xbd44bfb4	-0.048034385
149	0x3dd94607	0.1060906
150	0xbd2724db	-0.040806632
151	0x3ce5ae3f	0.028037189
152	0x3d8e05fb	0.069347344
153	0xbd0f2a4a	-0.03495244
154	0x3d899464	0.067177564
155	0xbd1648eb	-0.036690634
156	0x3ba4e4f4	0.005032176
157	0x3a2070d7	0.000612033
158	0xbb36dab4	-0.0027901353
159	0xbd51e7e1	-0.051246528
160	0xbb8749ac	-0.0041286554
161	0xbc52ac2a	-0.01285843
162	0x3d8796de	0.066205725
163	0x3c643232	0.013927983
164	0x3c1310ba	0.008976156
165	0xbd513bf1	-0.051082555
166	0x3b80264c	0.0039108153
167	0x3d9f8456	0.07788913
168	0x3a790b17	0.00095002487
169	0x3d21bd72	0.03948731
170	0x3d7bf99e	0.06151735
171	0xbdc7fd68	-0.0976513
172	0xbd136475	-0.035984475
173	0x3d90d4d9	0.070718475
174	0x3d3208f0	0.043465555
175	0xbd9e7541	-0.07737208
176	0xbcf85948	-0.03031601
177	0x3b810e5a	0.0039384784
178	0xbde33cdc	-0.110955924
179	0x3d9a01a0	0.07519841
180	0xbdccb0d7	-0.09994667
181	0xbc4a4012	-0.012344377
182	0x3d2665fb	0.0406246
183	0xbd833640	-0.06406832
184	0x3d821b43	0.06352856
185	0x3d068d7a	0.032849766
186	0xbbf4eb43	-0.0074743344
187	0x3da79fa2	0.081847444
188	0xbd4c8fb4	-0.049941733
189	0x3d8c4821	0.06849695
190	0x3d21f472	0.03953976
191	0x3c045973	0.008077967
192	0xbca94d66	-0.02066679
193	0xbb8493f4	-0.0040459577
194	0xbd67e158	-0.05661139
195	0x3d640747	0.055671003
196	0xbc4021c9	-0.011726805
197	0xbcd860a1	-0.026413264
198	0xbce671be	-0.028130408
199	0xbc90b270	-0.01766321
200	0x3bde1893	0.006777832
201	0x3db47e19	0.08813114
202	0xbd869a6e	-0.06572424
203	0x3d015c4f	0.031582173
204	0xbc39bd41	-0.011336626
205	0xbbf21da4	-0.0073887873
206	0x3d1169b7	0.03550121
207	0x3d44aa86	0.048014186
208	0x3b7d0f72	0.0038613942
209	0xbd9dad74	-0.07699099
210	0x3c58bb04	0.013228182
211	0xbd2ae7d1	-0.041724984
212	0xbd117997	-0.035516348
213	0xbe07d177	-0.13263498
214	0xbd36b7d2	-0.0446089
215	0xbd6b93bc	-0.057513937
216	0xbe014d20	-0.12627077
217	0xbc98f4da	-0.018671442
218	0xbb791918	-0.0038009342
219	0xbd5d4fb9	-0.054031108
220	0xbc27582d	-0.010213894
221	0x3b4110db	0.002945951
222	0x3ce35093	0.027748382
223	0x3d0af72e	0.033927135
224	0x3cbf43f2	0.023347829
225	0xbbf3c222	-0.007438914
226	0x3b1a4210	0.0023537911
227	0xbd718ad6	-0.058970295
228	0xbdad166d	-0.08451543
229	0x3d86e0bd	0.06585834
230	0xbd589f63	-0.052886378
231	0xbe039666	-0.12850341
232	0xbd6f4e7b	-0.058424454
233	0x3d968e09	0.0735131
234	0xbc945ff6	-0.018112164
235	0x3c8d5883	0.01725412
236	0x3dbaf2c7	0.09128337
237	0xbdb551a7	-0.088534646
238	0xbb9a9c35	-0.0047183284
239	0xbd5225c1	-0.051305536
240	0x3dcbc359	0.09949369
241	0xbc88d205	-0.016701708
242	0xbddde3c9	-0.10834462
243	0xbdba63f7	-0.09101098
244	0x3cd25b3b	0.025678268
245	0xbc96d298	-0.018410966
246	0x3d9d63a0	0.076850176
247	0x3c24cd78	0.010058753
248	0xba9d5f9d	-0.0012006644
249	0xbcea8c9f	-0.028631506
250	0x3c144dbb	0.0090517355
251	0xbce2ada1	-0.027670683
252	0xbd9d20a7	-0.076722436
253	0xbd8995f4	-0.067180544
254	0x3bc7076b	0.0060738823
255	0x3c8f77c9	0.017513173
