perceptor/models/simulacra_aesthetic/weights/RN50x16.pth (torch, 4135 bytes, 1 tensors)

linear.weight f4 [1, 768]
00000000: 1978 aabc db37 333d e03b c13c e1f3 d3bd
00000010: 7419 4abd 9550 7fbb 2e21 55bb b0ec 65bc
00000020: 2807 33bd bf28 193d 1463 63bd 878b c5bd
00000030: 70a0 103d 4737 38bd d101 3cbd ce05 7a3b
00000040: 1e13 c73c 74fe b53b 0e48 c43d 3946 273d
00000050: 8e12 393d d69e 64bc d74d 413b e244 e4bb
00000060: 5fa3 4b3d df0d 1bbd 646f 973d 67a4 c8bc
00000070: ba04 57bd 2c43 0f3c dc31 f3bd 4471 e13b
00000080: 199d 873d f698 bdbd e77b 39bd 4507 113d
00000090: 564f 003d bbe5 033d e7ab 80bd 8b22 bfbc
000000a0: 6b78 22bd a146 83bd 8779 2d3d 7172 a63c
000000b0: f4fd 0e3d e7ef c33b c569 80bb a766 9cbd
000000c0: 8356 5d3d ffcc 7bbc b67e cfbc c4c8 2b3c
000000d0: 3672 8cbd 6995 69bd 0ed2 78bd 1bc2 533c
000000e0: e141 743d eb9f 3bbc 5426 663d 8612 53bd
000000f0: deb0 9cbc 6696 6dbd 96c9 7d3d d795 a9bc
00000100: 3670 46bc 8007 e6bc f824 053d e452 79bc
00000110: b54b 0e3d e79f 26bd 8910 47bd 4b74 00ba
00000120: a8c8 23bc d1ce 103b 6e16 debc a454 e23b
00000130: 0a98 1cbd 40d7 6ebc 8843 8dbc bcf0 a0bc
00000140: 8308 313c 6ca7 e6bd c9cc 573c 8881 903c
00000150: 13c7 9abd 70a4 d7bc 60f6 3e3c 9e1d 6bbb
00000160: 506f 6bbc 86f1 983d bbb8 5d3d 7ee8 233d
00000170: 90f0 1e3d bb96 da3c d6a5 6fbd 9e3d 06bd
00000180: 3b33 443c eda8 2bbd e68e d5bb 886c d2bb
00000190: d5e4 5bbc 7053 e43c 1b7d e33c 46b7 1bbd
000001a0: 78a0 3f3d dada 0d3c dbe2 103d a7a3 803c
000001b0: 4d80 463d df66 853c afe0 1f3a 7cf7 0e3d
000001c0: 7fa4 e2bd b790 0a3d 6bab d1bc 38ad 6cbd
000001d0: 504a 05bc 5814 c33d b050 6fbd 9f84 293c
000001e0: 5c7a 6cbc 00ba 3a3b 12bc dbbd a377 363c
000001f0: e5ce 2f3c bf04 513d c595 87bb a3fc a0bd
00000200: bdca a1bd 601b a5bd 8ff4 303c 1fff 0fbd
00000210: b2ab 3ebd b640 873c a81a 4f3d 03be 2a3d
00000220: 8360 17bc c6fc afbd 9f73 583d 3271 48bc
00000230: 641e a63d b443 d13c 34bf d9bc b3ad 8abd
00000240: cb60 1b3c 99af a83d 29b7 a3bc 7d85 0b3c
00000250: 309f 23bc a208 9d3d c830 a33c 3422 b13b
00000260: fc00 c0bc cc05 4739 a390 a0bd acb4 583b
00000270: 3591 77bc a940 4ebc 8b28 913d bf13 1e3b
00000280: 79d3 513b 320a 893c 2507 66bb bc0d 2f3d
00000290: 910b 03bc 41d4 113e 82cf 5f3b 1538 e03c
000002a0: 0e1e 8ebb d0b9 30bd cf27 9bbc 333c 49bd
000002b0: ae5f bb3d 6438 653d c0f4 1dbd f171 06bc
000002c0: 5667 583d f998 0a3c 0c06 38bd 7c12 423c
000002d0: 3be4 75bc d668 c7bc e399 183d 331d fcbc
000002e0: eea6 55bd decc 16bd 56fc 82bd fae1 0bbd
000002f0: 8511 4ebd 42b2 cebb b3e8 c239 49bc babd
00000300: db0a 733b f52f 603d 5603 a7bc bd8a e63c
00000310: 751b 09bd 63ce 10bd 7808 233d c5e4 a03d
00000320: 8350 3cbd 15b6 8fbc 25a5 4cbc 90c2 83bc
00000330: 1094 a7bc 1a4b 20bc 1c96 133c 202c 32bd
00000340: 0552 19bc 06d6 27bd 7957 f4bb 5fda c23c
00000350: 3f92 14bd b7be 29bd d990 063c b95b 6abd
00000360: 207e 5dbd 827f 36bd a3dc 903c f876 3d3b
00000370: 338a 783c ced6 89bd cfa2 913c 4788 a3bc
00000380: 2d36 9dbd 6437 173d c7a2 21bd e95a 933c
00000390: e018 223d 1f2a 783d a451 85bd b0d4 f53c
000003a0: 9dee d2bc 1a30 6cbc fc50 6d3d db0c 393d
000003b0: 816d 653c 620a 40bd 7516 31bc 2eb2 e3bc
000003c0: bfa1 35bd a12c 913c da25 22bd 58e4 9e3d
000003d0: 05f0 193d f410 0cbc 2cf1 9d3d 7234 aa3b
000003e0: 782a 9bbc 93ff 9abc 6ef7 cabc d142 073d
000003f0: bd2b fabc 739d c2bb 44b6 723d 6234 4f3d
-0.02080922 0.04375444 0.023588121 -0.103492506 -0.04934068 -0.0038957943 -0.0032520997 -0.0140334815
-0.043707997 0.037392374 -0.05551441 -0.09645753 0.035309255 -0.04497459 -0.04590017 0.0038150433
0.024301108 0.005554015 0.09584056 0.040838454 0.04518371 -0.013953885 0.002949586 -0.0069662193
0.04971635 -0.037855025 0.07394293 -0.024492456 -0.052494742 0.008744042 -0.11874744 0.0068799574
0.06621761 -0.092576906 -0.045284178 0.035407323 0.03132566 0.03220151 -0.06282788 -0.023331901
-0.03966562 -0.06409956 0.042352226 0.020318242 0.034910157 0.0059795263 -0.0039188587 -0.07636767
0.054037582 -0.015368699 -0.025328975 0.010484878 -0.068577215 -0.057027254 -0.0607472 0.012924696
0.05963314 -0.011451702 0.056188896 -0.051531337 -0.019127306 -0.05800476 0.061959825 -0.020701332
-0.012111714 -0.028079748 0.03250596 -0.015217517 0.03474017 -0.04067984 -0.048599754 -0.00049001415
-0.009996571 0.0022095928 -0.027110305 0.0069070626 -0.038230933 -0.014577687 -0.017244115 -0.019646041
0.010805252 -0.11262402 0.013171383 0.01763989 -0.07557502 -0.026323527 0.01165542 -0.0035875808
-0.014369801 0.07467942 0.05413125 0.040016644 0.038803637 0.026683202 -0.058507763 -0.032773606
0.011975105 -0.041909147 -0.006517279 -0.0064216293 -0.013421257 0.027871817 0.027769616 -0.03801658
0.046783894 0.008658135 0.035372596 0.015703036 0.0484622 0.016284404 0.0006098849 0.03490399
-0.110665314 0.033829417 -0.025594434 -0.05778238 -0.008135393 0.09525365 -0.05842656 0.010346561
-0.01443347 0.0028492212 -0.10729231 0.011136922 0.01073048 0.051029917 -0.004137727 -0.07860687
-0.078999974 -0.08061862 0.010800495 -0.03515541 -0.04655046 0.016510349 0.05056253 0.041685116
-0.009239319 -0.085931346 0.05284464 -0.012234019 0.08111265 0.025544979 -0.02658043 -0.06771412
0.009483526 0.082366176 -0.019984799 0.008515713 -0.009986684 0.07667662 0.019920722 0.0054056887
-0.02343797 0.00018980278 -0.07840087 0.0033066673 -0.015110304 -0.012588658 0.07087811 0.0024120656
0.0032016917 0.016728494 -0.0035099473 0.042737707 -0.007998363 0.14241125 0.0034150784 0.027370492
-0.004337079 -0.043145955 -0.01893988 -0.049129676 0.09149109 0.05596198 -0.03856349 -0.008205877
0.052832924 0.008459323 -0.04492764 0.011845227 -0.015008028 -0.024341982 0.037256133 -0.030775642
-0.05216115 -0.03681647 -0.063957855 -0.034151055 -0.050309677 -0.006307871 0.00037175938 -0.09117944
0.0037085328 0.054733235 -0.020387333 0.028142327 -0.03347345 -0.035353076 0.039803 0.07856134
-0.04597522 -0.017542878 -0.012490545 -0.016083986 -0.020456344 -0.009783531 0.009007957 -0.043499112
-0.009357934 -0.040975593 -0.0074567166 0.023785768 -0.036272284 -0.041441645 0.008213245 -0.05721638
-0.05407536 -0.044555195 0.017683333 0.0028910022 0.015169668 -0.06730424 0.017777828 -0.019962443
-0.07676349 0.03691806 -0.039461877 0.017987685 0.039574504 0.060587045 -0.06509712 0.030008644
-0.025748545 -0.014415765 0.05793856 0.045178276 0.014003159 -0.0468849 -0.010808577 -0.027794924
-0.044343706 0.017721476 -0.03958688 0.07758397 0.037582416 -0.008548964 0.077120155 0.0051942402
-0.01894115 -0.018920695 -0.024776187 0.033022705 -0.030538434 -0.0059391796 0.059255853 0.050587066
