perceptor/models/simulacra_aesthetic/weights/RN50.pth (torch, 5159 bytes, 1 tensors)

linear.weight f4 [1, 1024]
0	0x3eb0f210	0.3455968
1	0xbf135cbe	-0.5756339
2	0xbe8eb230	-0.2787032
3	0xbf127ab8	-0.57218504
4	0xbeca5bda	-0.39523202
5	0xbf686b56	-0.9078878
6	0xbf5fb94b	-0.8739211
7	0x3e029c14	0.12754852
8	0x3dd33ca7	0.10314303
9	0x3c6ab288	0.014324792
10	0xbf9d2b82	-1.2278903
11	0xbed492dc	-0.41518295
12	0xbece189c	-0.4025315
13	0x3f892443	1.0714191
14	0x3ee0c1e5	0.4389793
15	0xbd894344	-0.06702283
16	0xbfbe279a	-1.4855835
17	0x3edf7ca2	0.43649775
18	0xbfaac723	-1.3342022
19	0xbebf83ae	-0.3740515
20	0x3e2480ba	0.1606473
21	0x3f673172	0.9030982
22	0x3ed80a57	0.4219539
23	0xbeb276b0	-0.34856176
24	0x3e927724	0.28606522
25	0xbf1e2407	-0.61773723
26	0xbee4f156	-0.44715375
27	0x3f6621da	0.89895403
28	0xbee23c62	-0.44186693
29	0x3ea19062	0.31555468
30	0x3efa11aa	0.48841602
31	0xbf5e9f61	-0.8696194
32	0x3f2fe84f	0.6871385
33	0xbf9ea3ac	-1.2393699
34	0xbf71022d	-0.94143945
35	0x3e8ff726	0.28118247
36	0x3f5c9aff	0.86174005
37	0xbecae56c	-0.3962816
38	0x3e519e1e	0.20470473
39	0x3eb0b684	0.34514248
40	0x3f8bb5df	1.0914878
41	0xbe23d802	-0.16000369
42	0x3e3e8bb6	0.18607983
43	0x3f8c295b	1.0950121
44	0x3f9f0861	1.2424432
45	0xbe8ae091	-0.27124456
46	0x3fd35539	1.6510383
47	0xbcb9489f	-0.022617636
48	0xbd22673b	-0.03964923
49	0xbed60e3b	-0.41807732
50	0x3e3d8617	0.18508182
51	0xbf23ccc0	-0.639843
52	0xbdccd8ee	-0.100023136
53	0x3e90b2b0	0.28261328
54	0x3f12d050	0.5734911
55	0x3d641a26	0.055689
56	0x3e6cc559	0.23122157
57	0xbfb223bb	-1.3917154
58	0xbe449935	-0.19199069
59	0xbe32e0fc	-0.17468637
60	0x3f406226	0.7514976
61	0x3dc49489	0.09598643
62	0x3f426163	0.7592985
63	0xbf49b4ff	-0.78791803
64	0x3ee06538	0.43827224
65	0x3ecbd647	0.39811918
66	0x3f5e0102	0.8672029
67	0x3faaa0f0	1.3330364
68	0xbf364d8e	-0.7121209
69	0xbec987dd	-0.39361468
70	0xbcb58168	-0.022156432
71	0xbf63330a	-0.88749754
72	0x3fb4d340	1.4126968
73	0x3f8cbbf0	1.0994854
74	0x3f2a2698	0.6646514
75	0xbf1b99a2	-0.607813
76	0x3f52b8a7	0.8231301
77	0xbdb1a06c	-0.08673176
78	0xbf4b28a1	-0.7935887
79	0x3eceb04e	0.40368885
80	0x3d7bafa6	0.06144681
81	0x3f43af44	0.7643931
82	0xbf9146f4	-1.1349778
83	0x3fa241d7	1.2676343
84	0x3f3ea6a2	0.7447301
85	0x3db34e0b	0.0875512
86	0x3cf6ef3b	0.03014337
87	0xbebef247	-0.37294218
88	0xbf5e7ced	-0.8690937
89	0xbf34b544	-0.7058909
90	0xbe29f05e	-0.16595599
91	0x3faae840	1.3352127
92	0xbd87f33c	-0.0663819
93	0x3d19a8b0	0.03751439
94	0x3f738b5e	0.9513453
95	0xbf3cacc0	-0.73701096
96	0xbedf1a4e	-0.43574756
97	0x3e843234	0.25819552
98	0xbea8e388	-0.32986093
99	0x3f0200cb	0.5078246
100	0xbe13919f	-0.14411019
101	0xbdfe2ba7	-0.1241067
102	0xbf89d7e2	-1.0769007
103	0xbee9cb38	-0.45662856
104	0xbd2f26ed	-0.042761732
105	0x3f4f7224	0.8103354
106	0x3f9067d2	1.1281683
107	0xbe8cd556	-0.27506512
108	0x3e899162	0.2686873
109	0x3d2a05c3	0.0415094
110	0xbd87b7cb	-0.066268526
111	0xbf176edf	-0.5915355
112	0x3f672334	0.9028809
113	0xbe836756	-0.25664777
114	0x3f0c1eef	0.547347
115	0xbf03b03f	-0.51440805
116	0x402e76f0	2.7260094
117	0x3f43e854	0.7652638
118	0xbefea7d8	-0.4973743
119	0xbcd7bd69	-0.026335435
120	0xbe91fc13	-0.2851263
121	0x3e2e926d	0.17048045
122	0x3e6af6a4	0.22945648
123	0x3e370f70	0.17876983
124	0xbea58392	-0.32326943
125	0x3f257c6c	0.6464298
126	0x3fb2d977	1.3972615
127	0xbf62f4af	-0.8865461
128	0x3f88b481	1.0680085
129	0xbe11d887	-0.14242755
130	0xbfd300f7	-1.648467
131	0xbdc7058f	-0.09717857
132	0xbfb8c613	-1.4435447
133	0x3e88c754	0.26714575
134	0xbf0111c0	-0.5041771
135	0xbeb8fb4b	-0.3612922
136	0x3f30ed35	0.6911195
137	0x3eb897ee	0.36053413
138	0x3f181cd9	0.5941902
139	0x3fbb3568	1.4625673
140	0xbf24b980	-0.6434555
141	0x3e25db1b	0.16196863
142	0xbff96cce	-1.948633
143	0x3c5374a7	0.01290623
144	0x3d425757	0.047446575
145	0x3db048c7	0.08607631
146	0x3f2c3619	0.67270046
147	0xbc00bdb3	-0.007857728
148	0xbea9bb56	-0.33150738
149	0xbe07f5af	-0.13277315
150	0xbe8ce1c5	-0.27515998
151	0xbe72966d	-0.23690195
152	0x3e0bdcea	0.13658491
153	0xbedb58fe	-0.42841333
154	0x3ec3ce6d	0.38243428
155	0x3ee5f467	0.44913027
156	0xbfa79435	-1.3092104
157	0xbf34e354	-0.70659375
158	0x3eb2232b	0.34792456
159	0xbfb32f56	-1.3998821
160	0x3f962406	1.1729743
161	0xbd23c6b8	-0.039984435
162	0x3f5b5e05	0.8569034
163	0x3e0bbe63	0.13646846
164	0xbe55dfd0	-0.20886159
165	0xbe2bf492	-0.16792515
166	0xbf73f98b	-0.9530265
167	0xbe2b1b5e	-0.16709659
168	0x3dca8702	0.09889032
169	0xbe4734cc	-0.19453734
170	0x3d2569cd	0.040384103
171	0x3c6a50cb	0.014301489
172	0x3f07960b	0.5296332
173	0xbf1ed7a6	-0.62047803
174	0xbeb70133	-0.35743102
175	0x3fd0e185	1.6318823
176	0x3f7edd83	0.9955675
177	0x3f7e6c5b	0.9938409
178	0x3e360e73	0.1777895
179	0x4000c7a3	2.0121849
180	0xbde1d12a	-0.11026223
181	0xbf1474b6	-0.57990587
182	0xbfbc3b49	-1.4705592
183	0xbee6233a	-0.4494875
184	0x3f0dc81a	0.55383456
185	0xbd507fe5	-0.05090322
186	0xbeba15cc	-0.36344755
187	0xbf390d0e	-0.72285545
188	0x3c4247a8	0.0118579045
189	0xbe8a0edf	-0.2696447
190	0xbf228cd1	-0.6349612
191	0x3f87a5d0	1.0597477
192	0x3dce9543	0.10087063
193	0xbe889379	-0.26675013
194	0x3e73831e	0.23780486
195	0xbf387a6d	-0.72061807
196	0x3ecb630c	0.39724004
197	0x40073a4f	2.1129339
198	0x3e362dbc	0.17790884
199	0x3f949e2f	1.1610774
200	0x3f25364f	0.64535993
201	0xbf2fb580	-0.6863632
202	0x3d78a7a1	0.06070674
203	0x3f831bb0	1.0242825
204	0x3d3d72c0	0.046252012
205	0x3f31ca07	0.69448894
206	0xbcfd5957	-0.03092639
207	0x3e3c6a1f	0.18399857
208	0xbf157646	-0.58383596
209	0x3ef7b8a8	0.4838307
210	0xbfb5345c	-1.4156604
211	0xbfc79033	-1.5590881
212	0xbeacb666	-0.3373291
213	0xbf8225f6	-1.0167835
214	0x3f5ea2d1	0.8696719
215	0xbe5869d0	-0.21134114
216	0x3ca9797a	0.020687807
217	0x3f1df22f	0.6169767
218	0xbf30e97e	-0.6910628
219	0xbf7a8653	-0.9786121
220	0x3f37e9c5	0.7184108
221	0xbf5b94fa	-0.85774195
222	0x3f06acc0	0.52607346
223	0x3e1a8374	0.15089208
224	0x3ce0b9c2	0.027432326
225	0xbea42326	-0.32058066
226	0x3ea5e01b	0.3239754
227	0xbcc07056	-0.023491066
228	0x3f4a2cde	0.7897471
229	0xbfc83056	-1.5639751
230	0xbd718ab2	-0.05897016
231	0xbf5daca6	-0.86591566
232	0xbf3ede91	-0.7455836
233	0xbeabb79b	-0.33538517
234	0x3f4555e7	0.770842
235	0xbede5226	-0.4342205
236	0xbeb6c093	-0.35693797
237	0xc0164882	-2.3481755
238	0x3d436d7a	0.047711827
239	0x3d1edf13	0.03878696
240	0x3dca5508	0.098795
241	0x3f2d2ceb	0.67646664
242	0xbcc1a333	-0.02363739
243	0xbe68f45d	-0.22749467
244	0x3ef14034	0.47119296
245	0xbebcf39e	-0.36904615
246	0xbf1143b4	-0.5674393
247	0xbf78c051	-0.9716845
248	0xbf8909e2	-1.0706141
249	0x3f20bda6	0.6278938
250	0x3dda7087	0.10665994
251	0x3d7ee9f8	0.06223485
252	0x3f9c4699	1.2209045
253	0xbea5e0f1	-0.3239818
254	0x3d9228a1	0.071366556
255	0x3e4551d1	0.19269492
