perceptor/models/simulacra_aesthetic/weights/RN50x64.pth (torch, 5159 bytes, 1 tensors)

linear.weight f4 [1, 1024]
00000000: 7da2 13be 80a5 21be a778 c038 628e 01be
00000010: 74a1 873e 78d3 bd3e ebcd d83c 83e7 b2be
00000020: 08e2 803b a9b6 24bd 351b 823d 6737 3cbe
00000030: ea22 e1be 7397 63bd 5e2e eabc 6bbe 1f3e
00000040: 3f95 65be 280d 81bd 781a f039 96e4 29be
00000050: 3b58 cbbd 7e4a 8cbd 45b0 b0bd 4605 3cbe
00000060: 9557 6abe 1c26 0e3e 79ac b83d a5b1 433c
00000070: e79e c63e 4c3f 95bc fa8e 3dbb 53b5 4dbd
00000080: 9b65 8d3e 3be1 f03e 6ca4 1d3d 6ea2 953e
00000090: 0be0 583e 8735 f7bd de0c debe 4404 3b3d
000000a0: cb69 da3c b8a2 d83d 46c3 4dbe 93c2 6ebd
000000b0: 71ee 903e 2b5d 76be 4684 15bc ed19 0ebe
000000c0: fe6f 82bd f130 97bc 29f4 7b3e a526 843e
000000d0: 8be6 8abd 61e9 5c3d 300a 873c d90f 2b3d
000000e0: f9de adbd 488d 79be f1ec debc eb44 66be
000000f0: cada 4bbe 98f6 c63c 1998 5cbd 2d9a 093e
00000100: 7ca8 8fbd c425 13be 0686 59be 2ac9 2abe
00000110: 6b81 3abe 5ae1 4bbe f01b b7bd 571a 2f3d
00000120: 12bf dfbd e053 c43e 7108 993d c921 bdbe
00000130: cb78 d23d 32cd 4f3d 0af9 2e3e 22d7 18be
00000140: 0c63 883e 23e0 473d e7b9 ab3d 934b 7d3e
00000150: 759c 603e 50ea 903e 1115 70bd 1ced e6bc
00000160: 55af 41be 4ab6 2bbe 3d8a 313d b442 4d3e
00000170: c7d7 683e 3598 a93c 9a3c 3b3c 8623 9cbe
00000180: 2a11 64be a8c2 0ebd a66f 073e 15a6 953e
00000190: d007 a73e 3acd 54bd 92b9 3f3c 6bd1 acba
000001a0: 3ac9 25bd 13cc 343e 410a a43e 3406 0d3e
000001b0: 3e02 28be d27c 503e 39e2 32bc 2b40 0bbd
000001c0: 7aec 61be 6e95 853e e711 793e eee7 373c
000001d0: 20ed b7bc 530e 533e 77af 67be 583d 093d
000001e0: 7869 4c3e cb2a 053e 0f43 3a3c a107 a63e
000001f0: d295 4b3c a524 3bbc 6d82 ac3d f377 223d
00000200: 2cc0 423d 5555 363e 1bac 033d 65e9 cebc
00000210: a499 64bc 34b2 35bd 5f95 cabd 948a 27be
00000220: 82ef 49bd 4c28 d93d edee 6abd bbde cebe
00000230: 0e3a 1fbd 23c1 8dbe 50d6 233e c29c af3c
00000240: e40c bb3d 674a a03c baaa 8ebd ab27 da3c
00000250: 0c56 3abe 4624 1cbd 83e2 42be b3a6 113e
00000260: af42 e6bd 30e4 febd 63cf 86bd 171b cbbd
00000270: 83f3 7c3e 1b84 31bc 4b61 393c b0dc 38be
00000280: 28ec 99bc bf5a 2abe ff67 243e 155d 703d
00000290: e5a5 6cbd ed66 513e 85fe 2b3e 075e 3abd
000002a0: 1e18 0cbd ee96 d3bd 6deb d53e 8f54 b53b
000002b0: 0918 ce3b b9b6 c4bd 5ff8 8c3d 013b d03d
000002c0: 64b4 50bd 22fd bf3d 09cd 143e ad3f 7fbd
000002d0: 2bfe 2abd f8cb 3fbd d1b5 783d 2b68 36bd
000002e0: c033 323e dce0 7f3c e818 243e 1e68 123e
000002f0: 3f93 6c3e 223c abbc 0afd 89bd f6df 52be
00000300: ddb3 08bd 61ae 5a3e b0c1 083d a3b8 903d
00000310: b0fb b93c 1d02 7abd 87c7 20be 663f 3abe
00000320: 9998 623c e146 593e 7912 60be 4645 313e
00000330: 037c a0be 115f dd3d e9f5 f8bc e935 91bd
00000340: 78c1 6e3d b03d f73d a625 903c 741b a2bc
00000350: 42d9 273d 39b3 1cbc fd3e 24be c726 993e
00000360: c2d8 66be 9682 f13d 7842 45be be2e a53e
00000370: 5be4 04be 2ec0 9abd 4952 f53b 6142 febd
00000380: 9a84 503d af84 82bd 6da4 3bbd 671d 7b3d
00000390: 705a 50be 0be9 233e 0b20 a9bd be5c cebb
000003a0: 3305 9bbd e238 8dbe 4a55 babd ecd2 4b3e
000003b0: 9c8a 813c 7a5d b6bd 0de1 21bd 9617 3fbe
000003c0: 6111 9f3d 8d0f 1fbe c7a6 f5bb 0549 653d
000003d0: 9f42 b8bd 238d 0fbe a13b bfbe 8692 9c3e
000003e0: 7dc9 223c a94b 13bf b32b c7be d8ec acbe
000003f0: 8c67 0b3e 2ef3 abbe ce21 4f3e 83a2 a63e
-0.14417453 -0.1578579 9.177747e-05 -0.12651971 0.26490366 0.370754 0.026465377 -0.34942254
0.003933195 -0.04021326 0.063528456 -0.1838051 -0.4397195 -0.055564355 -0.028586563 0.15599982
-0.22420214 -0.063013375 0.00045796088 -0.16591105 -0.09928938 -0.06850146 -0.08627371 -0.18361387
-0.22884972 0.13881725 0.090172715 0.011944209 0.38793108 -0.018218659 -0.0028924332 -0.050221752
0.2761658 0.47046837 0.038486883 0.29225487 0.21179216 -0.120707564 -0.43369192 0.045658365
0.026661774 0.10577911 -0.20094022 -0.05829103 0.28306916 -0.24058978 -0.009125775 -0.13877077
-0.06369017 -0.018455954 0.24604858 0.25810733 -0.06782254 0.053933505 0.01648435 0.04176316
-0.08489794 -0.24370301 -0.027212592 -0.22487228 -0.1990768 0.024287507 -0.05385599 0.1343772
-0.07014558 -0.14369875 -0.21242532 -0.166783 -0.18213432 -0.19910184 -0.089408755 0.04274973
-0.10925116 0.38345242 0.07472313 -0.3693984 0.10276946 0.0507328 0.17087188 -0.14925817
0.26638067 0.048797738 0.083850674 0.2473586 0.21934684 0.28303766 -0.05861384 -0.028189234
-0.1891454 -0.16768757 0.043344725 0.20044976 0.22738563 0.02070246 0.011428023 -0.30495852
-0.22272173 -0.034853607 0.13226184 0.29228273 0.32623148 -0.05195353 0.011701958 -0.001318497
-0.040475108 0.17655973 0.32039073 0.13771898 -0.16407105 0.20360115 -0.0109181935 -0.033996742
-0.22062865 0.26090568 0.24323235 0.01122473 -0.022451937 0.20610933 -0.22625528 0.033505768
0.19962108 0.13004605 0.011368527 0.32427695 0.012425857 -0.011422311 0.08423314 0.039665174
0.04754655 0.17805989 0.032146554 -0.025257776 -0.013952646 -0.0443594 -0.098917715 -0.16361457
-0.049300678 0.10603389 -0.057356764 -0.40404305 -0.038873725 -0.27686414 0.15999722 0.021437053
0.09133318 0.019566728 -0.06966157 0.026630243 -0.18196887 -0.03812053 -0.1903172 0.14223747
-0.11243188 -0.12445867 -0.065825246 -0.09917276 0.24702267 -0.010834719 0.0113147 -0.18052936
-0.018789366 -0.1663618 0.16055296 0.05868252 -0.057775397 0.2044942 0.1679631 -0.045499828
-0.034202687 -0.10331522 0.41781178 0.005533762 0.0062894863 -0.09605164 0.068833105 0.10167504
-0.050953284 0.09374453 0.1453134 -0.062316585 -0.0417463 -0.04682538 0.06072027 -0.044532936
0.17402554 0.0156175755 0.16025126 0.1429753 0.23103045 -0.020902697 -0.067377165 -0.20593247
-0.033374656 0.21355583 0.03338784 0.07066467 0.022703022 -0.06103717 -0.15701114 -0.18188247
0.013830327 0.21218444 -0.21882047 0.17311582 -0.31344613 0.10809148 -0.030390697 -0.07090361
0.058289975 0.12072313 0.017596077 -0.019788481 0.040978678 -0.009564214 -0.16039653 0.29912397
-0.22543624 0.117924854 -0.19263637 0.32262224 -0.12977736 -0.075561866 0.007486616 -0.124150045
0.05090771 -0.06372964 -0.045811106 0.061307337 -0.20346999 0.16006868 -0.08258065 -0.006297677
-0.07569351 -0.2758246 -0.09098299 0.19904679 0.015813164 -0.08904548 -0.039521266 -0.18661341
0.07766987 -0.15533276 -0.007496688 0.05597784 -0.08997082 -0.14018683 -0.3735018 0.3058054
0.009935734 -0.57537323 -0.38900527 -0.33774447 0.13613719 -0.3358397 0.20227739 0.32545862
