perceptor/models/simulacra_aesthetic/weights/RN50x4.pth (torch, 3623 bytes, 1 tensors)

linear.weight f4 [1, 640]
000000 6c 06 02 bd bd 14 96 bb a4 79 58 3d a6 cc cf 3b
       -0.031744406 -0.004580109 0.05285038 0.0063415347
000010 d3 72 2a bc b3 b3 1e bc eb e7 9c bb 1d ba 33 3d
       -0.010403353 -0.009686398 -0.004788389 0.043878663
000020 7d d0 fe ba 3f ea 75 3d 0b db b4 bd 8b bd 4e 3d
       -0.0019440796 0.060037848 -0.08830842 0.05047373
000030 71 eb 8b 3c ad 73 2c 3c df c7 82 3d ca 39 8b bc
       0.01708004 0.010525626 0.06385779 -0.01699533
000040 a9 37 ec 3c 99 11 13 3d 70 6b ef bb 1b bf a3 3b
       0.028835135 0.035905454 -0.0073065087 0.004997147
000050 a1 be 71 3d 63 a2 ee bc 06 eb 70 3c d0 a6 43 bd
       0.05901969 -0.029130166 0.014704471 -0.047766507
000060 1a 1b 3e bd 87 0d 99 3c ce 33 81 bd 7e aa 06 bc
       -0.046412565 0.018683208 -0.06308709 -0.008219359
000070 73 cd b1 3c 3b 20 95 3c 52 7b 55 3b 87 67 3f bd
       0.021704411 0.018203845 0.0032574725 -0.04672959
000080 fa 18 08 3d 11 22 b4 bc 64 b0 bd bb 32 1b c3 3c
       0.033226945 -0.0219889 -0.0057888497 0.023816679
000090 f6 3c 20 bd 1e 88 7b bd 33 5d 5f bd 2c 18 10 3d
       -0.039120637 -0.06140911 -0.05453224 0.035179302
0000a0 f4 f7 0b 3b 69 3b 51 bd b7 2f 1c bc bb a7 ed 3c
       0.0021357508 -0.05108205 -0.0095328605 0.029010644
0000b0 6f 22 d6 bd 05 fb 34 3d d8 a1 54 bc 1a 70 a6 3c
       -0.104557864 0.044184703 -0.01297804 0.020317126
0000c0 f0 55 ad bd 64 0a b8 3d ef ea 91 3c d4 96 17 bd
       -0.08463657 0.08986357 0.01781222 -0.037009075
0000d0 9c 48 ad 3c 86 c1 11 3e f8 85 4d bc d9 f2 0b bd
       0.021152787 0.1423398 -0.012544148 -0.034167144
0000e0 f5 d1 f1 3c 4a f3 d8 3d fe e0 92 bc 93 90 9f 3b
       0.02951906 0.10593279 -0.01792955 0.0048695295
0000f0 ba 48 6c 3d c6 be f7 3c 00 ff de 3b e7 88 0b bd
       0.057686545 0.030242335 0.0068053007 -0.034066107
000100 8f a9 3c 3c 10 aa 0e bc f2 4b 85 3c 96 db d7 3d
       0.011515035 -0.008707538 0.016271565 0.105399296
000110 2f ca 3a 3c e3 a5 7d 3c 93 49 0e bd 2d a2 d1 bd
       0.011400743 0.015481445 -0.034738135 -0.10236011
000120 7e 21 ff 3c 96 40 4e 3b 12 77 47 bb 48 45 65 bd
       0.0311439 0.0031471602 -0.0030435962 -0.055974275
000130 df 1d e8 3d 95 63 5d 3d 65 b9 30 3d 71 f0 17 3d
       0.113338225 0.054050047 0.043145556 0.037094537
000140 13 78 90 bc 31 78 f6 b9 ca d4 d3 bd 3c 3b 80 3d
       -0.01763538 -0.00047010326 -0.10343321 0.06261298
000150 9b ab 9a bc 26 0d 07 bd 73 22 0d 3d 0c 7d fe bc
       -0.018880656 -0.032971524 0.03445668 -0.031065486
000160 5f 04 3c 3d 19 be e4 3b 06 1b 31 be 92 05 b4 bd
       0.045902606 0.006980669 -0.17295465 -0.08790125
000170 19 2e 93 3d 68 71 2e 3d 2a dd 1d be 99 06 4c bd
       0.07186527 0.04258862 -0.15416399 -0.04981098
000180 b9 32 3b bd 0e 80 b7 bc 98 e8 99 bd cf cd 25 bd
       -0.04570267 -0.022399928 -0.07515067 -0.040479477
000190 ba c1 7c 3d 5e 59 d0 3c a8 97 86 3b c6 6d ba bd
       0.06170819 0.025433239 0.0041074343 -0.09102969
0001a0 da dc c6 3c 07 60 2d 3b 4c 5c d4 3c c0 1e 00 bd
       0.024275232 0.0026454942 0.025922917 -0.031279325
0001b0 bf a9 51 3d 23 3b 75 bc 41 7e d5 bc a7 2e aa bd
       0.051187273 -0.014967713 -0.02606118 -0.083096795
0001c0 1d 9a 94 bd a9 78 29 bd ca 72 19 3c 92 73 93 bc
       -0.07255957 -0.041374836 0.009365747 -0.017999444
0001d0 98 b1 27 bd 10 f5 9c 3c ce 51 3f 3d 06 0a 63 bc
       -0.04094085 0.019159824 0.046708874 -0.01385737
0001e0 c5 01 ac bb 47 f8 2d 3b 02 f7 88 bd 7a 75 3a 3c
       -0.0052492344 0.002654569 -0.06687738 0.011380548
0001f0 f9 7b 09 bd 84 97 ae ba 27 e8 e0 bc 0d c1 5b bd
       -0.033565495 -0.0013320302 -0.027454449 -0.053650904
000200 f9 f2 8b 3c 44 70 8d 3c 36 1c 8c bd ca 20 58 3c
       0.017083632 0.017265446 -0.06841318 0.013191411
000210 26 7e 66 3c 41 b7 d5 bc d5 55 c3 3b f8 dd 8f 3c
       0.014068162 -0.026088359 0.0059611597 0.017561898
000220 2e d5 c6 bc 04 c1 db bc 97 82 78 3b cf a6 bb bd
       -0.024271574 -0.026825435 0.0037919634 -0.091626756
000230 33 0d d3 3d ec 7e a2 bd 8d ec a8 bc df 22 02 bd
       0.10305252 -0.07934365 -0.020620609 -0.031771537
000240 88 20 53 bd 12 0d fc bc dc 42 32 3d 3f 34 eb bc
       -0.051544696 -0.030767951 0.043520793 -0.028711436
000250 5d ea ee 3b d6 b4 68 3d 14 90 82 3d 32 fd 48 3d
       0.007291122 0.056813084 0.06375137 0.04906959
000260 9d bf 2d 3d e0 b9 f4 bc f5 86 c3 bc 9e 9e 3b 3d
       0.042419065 -0.029873788 -0.023868063 0.045805566
000270 28 af b6 3e 98 97 e9 b9 e9 d9 5e bc 4c cd b6 bb
       0.3568051 -0.0004455417 -0.0136017585 -0.0055786725
000280 9b d8 6f 3d 8e 81 c1 bc 5b fc 20 3d 82 da 16 bd
       0.05855618 -0.023621347 0.039303165 -0.03682948
000290 16 6b 39 bd 38 9d fe bc 54 1a f0 bc 5d 2d 08 3d
       -0.04526814 -0.031080827 -0.02930943 0.033246387
0002a0 e1 ee 8c bc 21 01 94 bd 67 76 55 3d 02 01 94 bc
       -0.01720375 -0.07226778 0.05211487 -0.018066887
0002b0 56 a7 27 bd 69 c3 5e 3d 32 08 0f 3e eb 2a 5a 3c
       -0.04093107 0.054385576 0.1396797 0.0133158965
0002c0 bb 96 63 3c c1 e3 ae bd 40 dd 01 bd fe 83 40 3d
       0.013890917 -0.08539534 -0.03170514 0.047000878
0002d0 96 ba b4 bd de 31 e5 bc d9 85 61 bd 7f 55 c5 bd
       -0.08824651 -0.02797788 -0.055059288 -0.09635448
0002e0 67 84 0e bd b3 1f 04 bd 8e 10 c6 bd ed aa 8d 3d
       -0.034794237 -0.032256793 -0.09671126 0.06917367
0002f0 bf 7e be 3d 44 c2 a3 3c 37 10 9a bd ca 12 c5 bc
       0.09301519 0.019990094 -0.07522624 -0.02405681
000300 90 4a c2 bc 62 10 05 3d 07 93 ed 3a 0d 49 80 3d
       -0.023717195 0.032486327 0.0018125483 0.06263933
000310 73 27 9d bd cc 1a ce 3b e3 37 9f 3d 3a 90 15 bc
       -0.0767354 0.0062898155 0.077743314 -0.009128625
000320 5f 18 9c bd 58 c0 4d bb 2a c8 5c bc ca 87 a1 3c
       -0.07621836 -0.0031395163 -0.013475457 0.01971807
000330 47 55 cf 3d da 23 b2 3d 8a 33 bd bc c9 4f e4 ba
       0.10123687 0.086982444 -0.023095865 -0.0017418797
000340 f4 46 b4 ba 13 d2 07 bd ee 4a 62 bd 81 de c6 3d
       -0.0013754056 -0.033159327 -0.05524724 0.09710408
000350 81 cd 89 3d 21 ab 04 be 82 e2 92 bd d0 04 5d bd
       0.0672865 -0.12955905 -0.07172109 -0.053959668
000360 bf 11 a5 3c f3 4b 0b bb a0 33 88 bd 60 77 8a bd
       0.020150064 -0.0021254986 -0.06650472 -0.0676105
000370 dc c6 6e bd ee 55 05 bd 4e bc 75 3a 16 2f 0d 3d
       -0.058295116 -0.032552652 0.0009374068 0.034468733
000380 d1 1f 22 3d f2 8a 58 bd 0b 92 72 3c e3 70 13 bb
       0.039581124 -0.052866884 0.014805327 -0.0022497706
000390 10 06 ee 3d 6c 9d 78 3d c0 f3 8e 3d 9f 66 92 bd
       0.1162225 0.060697004 0.069800854 -0.0714848
0003a0 79 68 8a 3d 32 a5 2b 3c 2b d1 13 bd 71 0d 49 3d
       0.06758208 0.010476397 -0.03608815 0.049085084
0003b0 12 04 be 3c c0 81 49 3d 8b ae d0 3c 75 16 9c bd
       0.0231953 0.049196005 0.025473854 -0.07621471
0003c0 a9 1a 6c bd f5 2c e7 3c 69 93 5a 3d 3a 24 d5 3b
       -0.057642613 0.02821968 0.053363238 0.0065045627
0003d0 a9 73 79 bc db 42 ac bd 75 3f 18 bd 2b 98 f8 bc
       -0.015225329 -0.08411189 -0.037169892 -0.030345997
0003e0 fc db 23 3b 54 f9 91 39 55 1c e6 bb e0 5e fb bc
       0.0025002947 0.0002784232 -0.0070224204 -0.030684888
0003f0 a9 aa 29 bd 45 c4 87 bd b5 41 ec ba 77 ca c0 3c
       -0.04142252 -0.06629232 -0.0018024953 0.023534043
