perceptor/models/simulacra_aesthetic/weights/ViT-L-14-336px.pth (torch, 4135 bytes, 1 tensors)

linear.weight f4 [1, 768]
00000000: c85a 543e 36b1 9bbd 5b3b 0ebf ea52 4cbc
00000010: dda1 ac3f 28ac 233f 55b1 30bf 4b6c 2cbe
00000020: bf5d a33d 3ea7 3fbf acfb 403f 7279 f23e
00000030: a83f 853d e511 813e 5625 ed3e b769 0a3f
00000040: 9a7d c8be 09ec 663e 58a7 523f c656 9dbe
00000050: fc9d 503c 0af2 873e 09e2 ab3e b891 c4be
00000060: 98d0 90bf e2a8 dfbe e3e2 22bf df6e e4be
00000070: d9e6 80be 16b7 013d c5ea 12be fb3e 17bc
00000080: 89ac b2be 8083 953e b063 24bf a77c 3a3c
00000090: 038e 7a3e 73e8 09bf 8e53 4b3e 8bf2 243f
000000a0: c1c8 663e 2a1d a6be d9ca 1ebf e509 12bf
000000b0: 5ca8 53bf 0158 a9be 4814 25bf e8cc d73e
000000c0: c4b7 623e 100e 4c3f 5d69 aebc 1134 8c3e
000000d0: f8fe 6ebe ce1c ef3d f896 0a3e 0824 f8bc
000000e0: df4a a03e c516 573e c282 cd3d 657c 0f3e
000000f0: 0dcf 5b3e 2f51 bbbe d4a4 bb3d 0f57 38bf
00000100: e8da b9bf fbd9 23bf dca7 2dbf f395 1b3f
00000110: b50e 873f 0b02 a4bd 87d0 b2be a51c 8a3d
00000120: 88d9 b93e dfd9 3ebe b11b 26be 8107 e7be
00000130: 5040 7dbe d675 1d3f 8e2d 833e e974 48bf
00000140: cb46 17bd ce55 353f b202 b4be 18d2 373e
00000150: 75b1 803e 3e96 3ebf 52c8 8ebc 197b 563f
00000160: fdb0 67be 3cf8 163e 5658 853e 3528 95bc
00000170: 4ebb 27bf 7a34 ce3d 1960 91be f6d2 2a3e
00000180: 583b 3dbd 89f8 193e 0ce2 833e c333 013e
00000190: 3a7a 9e3e 967d 10bf c166 243e 2e29 7fbd
000001a0: cb02 ab3a a21f ddbe 553a 7bbf 1ded 033e
000001b0: 64df 0f3e bc18 cd3e dc28 d4be 8157 adbd
000001c0: c5ae cebe a6e0 c0bc c34c 1fbe 8ed5 5f3f
000001d0: 9d15 26bf 07ae c4be 95a0 a23f 6f73 a4be
000001e0: 8b1d 6f3f 37df 64bf 2dbc a33d 58ba 61be
000001f0: e58c c33e ae35 9ebe 5b6c 883e 21f9 f3be
00000200: 39e2 e9be 546a a8be 9ad8 883e 8190 a13e
00000210: 14ef 85be 5eab 79bf f76b e83d 0ea4 cf3e
00000220: 4702 0a3e f239 683f 1429 953f f045 563e
00000230: d8f6 1fbf 554d 083f dd68 033f f407 34bf
00000240: 9821 c7bd 73ee 58bf 5a4f 773e f6e4 cf3c
00000250: b910 c73d 4203 58bd 208b 31bf 25ba a9be
00000260: 183b f83e 62c3 cf3e 2594 833d 04de 843e
00000270: 5995 913d dfd8 bdbe 9c87 2c3f 417a d2be
00000280: 4dd3 22bf 1b87 123e 1391 e13e 8761 00be
00000290: b7c0 133f c535 9cbd 1b94 d93e c01f 0e3d
000002a0: f31a a13e a52c 143e bf94 a7be db10 3c3e
000002b0: 5559 aabe ff07 353f cddd e73e c4d6 ccbe
000002c0: 3988 0fbf d580 943e 4a93 42bf 06d5 08bf
000002d0: 0517 e83e 296d 54bf 2012 bcbe eeb1 bebe
000002e0: aa10 b53e d042 1f3e 99ef 1f3f 681a 753f
000002f0: 8fcb 83be a797 8c3d ed6d 5dbc 5150 573e
00000300: 216d 85be fc07 7a3d c439 ea3e 174a 92bf
00000310: d4e1 f53e 2e62 93be 893a 123d c815 5fbf
00000320: b959 05be d6e4 c03f edf2 96be 3206 66be
00000330: 3869 4ebf 64aa 3abf 43fc 9b3d 84ad dabe
00000340: 5a30 923e 7308 6e3e e29f 5a3d d1db 7b3d
00000350: d112 43bf 2420 1c3f 2d8f 01be 88b3 1dbc
00000360: 49e1 d63e eb29 c2be bde0 0dbf 9044 a6bf
00000370: 51d7 c13e 3e39 d3bd b9eb 253e a64e 9c3f
00000380: 0838 823e 4246 5f3e c39f 82bf 9506 c33d
00000390: 4a45 75be f21b 5ebd 2ec8 bbbe 3b80 c4be
000003a0: cbf8 7f3d 536b 463d a221 843e 1a01 5cbf
000003b0: 41ba 31bb 205c 963e 74d8 d4be 4292 383f
000003c0: 3c4a 40be 9bb7 f2bd ba11 5ebe c285 043f
000003d0: eba9 db3e 2586 0d3e d5d3 34be 2a96 103f
000003e0: dc43 15be d04c 8cbe 07d9 42bf 1c84 bc3d
000003f0: ee0d 27bf c2b7 973e 0af7 543f 1d91 46bd
0.20737755 -0.0760216 -0.5555932 -0.01247094 1.3486897 0.63934565 -0.6902059 -0.16838185
0.07976865 -0.74864566 0.7538402 0.4735828 0.06506282 0.25208965 0.46317548 0.5406756
-0.39158326 0.22550978 0.82286596 -0.30730265 0.012732979 0.2655185 0.3357089 -0.38392425
-1.1313658 -0.43683535 -0.6362745 -0.44615838 -0.25176123 0.031668745 -0.1434737 -0.009231324
-0.3489726 0.2920189 -0.6421461 0.0113822585 0.24468236 -0.53870314 0.19856092 0.6443259
0.22537519 -0.32444125 -0.6202827 -0.5704635 -0.8267877 -0.33074954 -0.6448407 0.4214852
0.22140414 0.7970896 -0.021290476 0.27383474 -0.2333945 0.11675416 0.13534153 -0.030290619
0.31307122 0.2100478 0.10034706 0.14012296 0.21465702 -0.36585376 0.09162298 -0.7200784
-1.451993 -0.64004487 -0.6783426 0.6077568 1.0551363 -0.08008202 -0.3492472 0.06743745
0.36298776 -0.18637799 -0.16221501 -0.45122913 -0.24731565 0.6150793 0.25620693 -0.7830339
-0.036932748 0.7083405 -0.35158306 0.17951238 0.2513539 -0.74448 -0.017429505 0.8378158
-0.2262611 0.14743131 0.26043957 -0.018207649 -0.6552018 0.10068603 -0.2839363 0.16682038
-0.046199173 0.15036215 0.25758398 0.12617402 0.30952626 -0.5644163 0.16054823 -0.06229513
0.0013047097 -0.43188196 -0.9813588 0.1288342 0.1405006 0.40057933 -0.41437423 -0.08463956
-0.40367714 -0.02354462 -0.15556626 0.87435234 -0.6487673 -0.38414022 1.2705256 -0.3211932
0.93404454 -0.894031 0.07994876 -0.22043741 0.38193431 -0.3090033 0.2664517 -0.47651008
-0.45680407 -0.32893622 0.26727754 0.3155556 -0.26158965 -0.9752711 0.11348718 0.4055485
0.13477431 0.9071342 1.1653161 0.20925117 -0.6248603 0.53243 0.51331884 -0.70324636
-0.097232044 -0.84738845 0.24151364 0.025377732 0.097199865 -0.052737482 -0.6935291 -0.3314983
0.48482585 0.40578753 0.06424741 0.25950634 0.07108564 -0.37079522 0.67394423 -0.41108897
-0.6360367 0.14309351 0.44055995 -0.12537204 0.57715935 -0.07627443 0.42495808 0.034698248
0.31465873 0.14470156 -0.32730672 0.18365805 -0.3327128 0.70715326 0.45286408 -0.40007603
-0.56067234 0.2900454 -0.76005995 -0.5345005 0.45330063 -0.82979065 -0.36732578 -0.37245125
0.35364276 0.1555283 0.6247497 0.9574342 -0.2574124 0.06864863 -0.013514978 0.21026732
-0.2605982 0.06104277 0.45747197 -1.142886 0.48023856 -0.28785843 0.035700355 -0.8714261
-0.13022508 1.5069835 -0.29482213 -0.22463301 -0.806293 -0.72916245 0.076164745 -0.42710507
0.28552514 0.2324541 0.053375132 0.06148893 -0.76200587 0.6098654 -0.12652273 -0.009625323
0.41968754 -0.37922606 -0.5542105 -1.2989674 0.37859586 -0.103136525 0.16203202 1.2211502
0.25433373 0.21804145 -1.0205005 0.0952274 -0.23952213 -0.05422587 -0.36676162 -0.38379082
0.062493127 0.048442196 0.2580691 -0.8593918 -0.0027119073 0.2936716 -0.4157139 0.7209817
-0.18778318 -0.11851426 -0.2168645 0.517666 0.42903075 0.13820703 -0.17658933 0.5647913
-0.14576668 -0.27402353 -0.7611241 0.09204885 -0.6525563 0.29632384 0.8318945 -0.048478235
